examples/weights_0_1.npy (npy, 401536 bytes, 1 tensors)

array f4 [784, 128]
0.0183599 0.03932304 -0.003135167 -0.051592827 -0.02045406 0.003943272 0.031058565 -0.06249156
0.07859359 -0.008273639 -0.042174336 0.030990653 0.020601362 -0.044343185 0.037450477 -0.0050093904
-0.057409845 0.032253496 0.041029453 0.016038023 0.002932772 -0.06068001 0.069706716 0.016659155
-0.0120482445 -0.017623164 0.025841057 -0.07862195 0.075388364 0.028165616 0.0030357465 -0.04260351
-0.055338167 0.020605922 -0.050218433 -0.05308866 0.0105912015 -0.005996302 -0.00022730231 -0.055097736
0.068777405 0.07639841 -0.050252818 0.03953874 -0.041468315 0.053584866 0.0007417202 -0.043616995
-0.009541422 -0.0410404 -0.07622583 -0.004846856 -0.045237254 -0.0023718402 -0.016864195 0.06833359
-0.029760156 -0.043848183 0.01122579 0.07322059 0.030104183 -0.058210663 -0.0022284314 -0.071747355
-0.022650681 -0.043464355 0.00029759854 0.019137897 -0.060390167 -0.008788601 0.045746423 -0.018423446
-0.026759394 0.07388004 -0.020031907 0.025677823 -0.06377487 -0.008151419 0.029771581 -0.013233684
0.022612005 -0.032122657 -0.04360315 -0.015049338 -0.07762386 0.043615676 0.08080714 0.022437476
0.006492719 -0.024244659 0.07560206 0.028772816 -0.047550134 0.018223621 -0.02038889 0.019340508
-0.037909992 -0.057983223 0.04325162 -0.04194719 -0.019372411 -0.07591445 0.04043673 -0.05656462
0.07305356 -0.05844537 -0.014903352 -0.02925535 0.061215945 -0.067034416 -0.05415024 -0.011515915
-0.07207891 0.016905658 0.056574814 -0.04401635 0.024891198 0.035881095 0.04061658 0.05097621
0.05791267 -0.069554836 -0.021763459 0.033314608 0.051378228 -0.07499576 -0.07347017 0.051837184
-0.06617502 0.053173907 0.005478233 -0.033190325 0.03743303 0.03366278 0.021560252 -0.07007977
-0.039666295 -0.07294254 0.044752426 0.079010285 0.011016451 0.022894286 0.07774874 0.024222977
0.080323 0.05207812 0.058004014 -0.06563459 -0.060495906 0.077383526 0.055477194 0.043625638
0.020158455 0.05245205 -0.008867845 0.048339225 0.047201447 0.01755941 -0.05075745 0.030968778
0.078455605 -0.037328295 0.030815348 0.075040825 -0.035729654 -0.037671898 0.07303571 -0.023664761
-0.03238496 -0.057934336 0.0028561726 -0.029948547 0.059872188 0.06529946 0.07493951 0.006905362
-0.023231138 0.015433803 0.034431323 -0.055824373 0.0077253804 -0.051028475 -0.007199608 -0.05148799
-0.06961498 -0.034681752 0.008732632 -0.009899698 0.049153782 -0.054205775 -0.011549257 -0.034298815
0.011239536 0.07797965 0.037676156 0.069480576 -0.039505344 -0.03846931 0.07271936 0.009837434
-0.0394475 -0.016285032 0.06426536 -0.07839496 0.06185635 -0.06431162 0.05282133 0.058145456
0.018497646 -0.034135077 -0.06483569 -0.04549482 -0.01588624 -0.027241845 0.047873534 -0.016616218
-0.061379723 -0.05493783 0.07724675 0.027482472 -0.03843899 -0.02983331 -0.013927929 0.017476328
0.058795758 -0.060846917 0.06425614 -0.055594362 -0.057488084 -0.044274032 0.03183359 0.030071735
-0.03215735 0.0017288625 0.047585405 -0.060416482 0.04052002 0.045663007 0.050035916 -0.072287396
0.063392036 -0.039745796 -0.018408053 0.0034385994 0.031293295 -0.014629677 -0.010914631 -0.00827685
-0.03353066 0.022935882 0.046023242 0.077495106 -0.034176286 -0.048554257 0.07308943 0.017403252
00000000: 8067 963c 3211 213d 6077 4dbb 0053 53bd
00000010: 468f a7bc 9036 813b 886e fe3c 26f7 7fbd
00000020: adf5 a03d 288e 07bc ffbe 2cbd 1ce0 fd3c
00000030: 30c4 a83c 33a1 35bd ac65 193d d025 a4bb
00000040: 9626 6bbd 3e1c 043d 800e 283d 2c62 833c
00000050: c033 403b 9a8b 78bd 65c2 8e3d c878 883c
00000060: 0066 45bc 745e 90bc a0b0 d33c 8b04 a1bd
00000070: 3765 9a3d 94bb e63c 60f3 463b 0581 2ebd
00000080: 46aa 62bd c0cd a83c d8b1 4dbd 7f73 59bd
00000090: b886 2d3c a07c c4bb 0058 6eb9 2aae 61bd
000000a0: 2bdb 8c3d c576 9c3d e6d5 4dbd 60f3 213d
000000b0: aeda 29bd ce7b 5b3d 0070 423a bca7 32bd
000000c0: a053 1cbc fa19 28bd 4a1c 9cbd 60d2 9ebb
000000d0: b34a 39bd e070 1bbb c826 8abc 7bf2 8b3d
000000e0: 92cb f3bc 279a 33bd 60ec 373c adf4 953d
000000f0: 0c9d f63c 4e6e 6ebd e00a 12bb 47f0 92bd
00000100: ec8d b9bc ae07 32bd 0007 9c39 14c7 9c3c
00000110: ae5b 77bd 10fe 0fbc 9a60 3b3d c4ec 96bc
00000120: 8436 dbbc 6b4e 973d f419 a4bc 4c5a d23c
00000130: 669c 82bd 888d 05bc 88e3 f33c 18d2 58bc
00000140: d03c b93c 0c93 03bd 3799 32bd 8091 76bc
00000150: 42f9 9ebd 5aa6 323d 377e a53d ccce b73c
00000160: e0c0 d43b bc9c c6bc 41d5 9a3d f8b4 eb3c
00000170: eec3 42bd b449 953c 9a06 a7bc fc6f 9e3c
00000180: 8247 1bbd d17f 6dbd 9c28 313d d1d0 2bbd
00000190: e4b2 9ebc 0979 9bbd fca0 253d 4eb0 67bd
000001a0: 1b9d 953d 6a64 6fbd 302d 74bc eaa8 efbc
000001b0: 92bd 7a3d 5749 89bd a4cc 5dbd 40ad 3cbc
000001c0: 1c9e 93bd bc7d 8a3c feba 673d 7d4a 34bd
000001d0: a0e8 cb3c 0ef8 123d 925d 263d 6ecc 503d
000001e0: d635 6d3d c472 8ebd 4849 b2bc e674 083d
000001f0: fa71 523d 6197 99bd 8777 96bd 3a53 543d
00000200: c586 87bd e2cc 593d c082 b33b 94f2 07bd
00000210: 6053 193d fce1 093d 209f b03c fc85 8fbd
00000220: 2079 22bd e662 95bd 524e 373d 25d0 a13d
00000230: 587e 343c cc8c bb3c bb3a 9f3d 446f c63c
00000240: 6380 a43d de4f 553d 9e95 6d3d 6e6b 86bd
00000250: 8eca 77bd 417b 9e3d 0e3c 633d ccb0 323d
00000260: 5823 a53c f6d7 563d 704a 11bc 5aff 453d
00000270: 4e56 413d c0d8 8f3c 0be7 4fbd 3cb2 fd3c
00000280: 55ad a03d 8ee5 18bd 7870 fc3c 01af 993d
00000290: 4259 12bd d94d 1abd bf93 953d 9adc c1bc
000002a0: 18a6 04bd 8e4c 6dbd a02e 3b3b a856 f5bc
000002b0: 8a3c 753d b9bb 853d e379 993d 6046 e23b
000002c0: 3a4f bebc 10de 7c3c dc07 0d3d 19a8 64bd
000002d0: 3025 fd3b 3c03 51bd b0ea ebbb 12e5 52bd
000002e0: 4c92 8ebd 740e 0ebd 5013 0f3c 5832 22bc
000002f0: 7a55 493d e006 5ebd 1839 3dbc ea7c 0cbd
00000300: 0826 383c cbb3 9f3d 5052 1a3d d54b 8e3d
00000310: 5bd0 21bd ff91 1dbd e3ed 943d 302d 213c
00000320: b493 21bd 3068 85bc 8f9d 833d 898d a0bd
00000330: 165d 7d3d d0b5 83bd 2e5b 583d ee29 6e3d
00000340: 6088 973c 39d1 0bbd 93c8 84bd c758 3abd
00000350: dc23 82bc 4a2a dfbc 0a17 443d bc1e 88bc
00000360: 4e69 7bbd 7d06 61bd 8b33 9e3d ec22 e13c
00000370: 3472 1dbd fc64 f4bc f831 64bc 842a 8f3c
00000380: d2d3 703d 9e3a 79bd b998 833d eab6 63bd
00000390: a078 6bbd b058 35bd f063 023d 0059 f63c
000003a0: 6db7 03bd 009b e23a eae8 423d 4677 77bd
000003b0: 52f8 253d 2209 3b3d 76f2 4c3d 6a0b 94bd
000003c0: afd3 813d 7dcc 22bd 7ccc 96bc 205a 613b
000003d0: 662d 003d 50b1 6fbc 48d3 32bc a09b 07bc
000003e0: 7257 09bd 08e4 bb3c de82 3c3d c1b5 9e3d
000003f0: 6ffc 0bbd d4e0 46bd e9af 953d 4491 8e3c
